…
e_Pointbertb32_SR2/backup-code')
Config: {'optimizer': {'type': 'sgd', 'skip_wd': [], 'weight_decay': 0.0001, 'kwargs': {'lr': 0.1, 'momentum': 0.9}}, 'scheduler': {'type': 'CosLR', 'kwargs': {'t_initial': 250, 'cycle_limit': 1, 'lr_min': 0.0001}}, 'model': {'ENCO_NAME': 'PointBERTB32', 'cla_input_dim': 512, 'dropout': 0.5, 'act': 'gelu'}}
World size: 1

SR2 train synset: {'bed': 0, 'toilet': 1, 'desk': 2, 'monitor': 3, 'table': 2}
Source: SR2
Num training classes: 4
Model: 
Classifier(
  (enco): PointPatchTransformer(
    (sa): PointNetSetAbstraction(
      (mlp_convs): ModuleList(
        (0): Conv2d(9, 64, kernel_size=(1, 1), stride=(1, 1))
        (1): Conv2d(64, 64, kernel_size=(1, 1), stride=(1, 1))
        (2): Conv2d(64, 128, kernel_size=(1, 1), stride=(1, 1))
      )
      (mlp_bns): ModuleList(
        (0-1): 2 x BatchNorm2d(64, eps=1e-05, momentum=0.1, affine=True, track_running_stats=True)
        (2): BatchNorm2d(128, eps=1e-05, momentum=0.1, affine=True, track_running_stats=True)
      )
    )
    (lift): Sequential(
      (0): Conv1d(131, 512, kernel_size=(1,), stride=(1,))
      (1): Lambda()
      (2): LayerNorm((512,), eps=1e-05, elementwise_affine=True)
    )
    (transformer): Transformer(
      (layers): ModuleList(
        (0-11): 12 x ModuleList(
          (0): PreNorm(
            (norm): LayerNorm((512,), eps=1e-05, elementwise_affine=True)
            (fn): Attention(
              (attend): Softmax(dim=-1)
              (dropout): Dropout(p=0.0, inplace=False)
              (to_qkv): Linear(in_features=512, out_features=1536, bias=False)
              (to_out): Sequential(
                (0): Linear(in_features=512, out_features=512, bias=True)
                (1): Dropout(p=0.0, inplace=False)
              )
            )
          )
          (1): PreNorm(
            (norm): LayerNorm((512,), eps=1e-05, elementwise_affine=True)
            (fn): FeedForward(
              (net): Sequential(
                (0): Linear(in_features=512, out_features=1024, bias=True)
                (1): GELU(approximate='none')
                (2): Dropout(p=0.0, inplace=False)
                (3): Linear(in_features=1024, out_features=512, bias=True)
                (4): Dropout(p=0.0, inplace=False)
              )
            )
          )
        )
      )
    )
  )
  (penultimate): Sequential(
    (0): Linear(in_features=512, out_features=512, bias=False)
    (1): BatchNorm1d(512, eps=1e-05, momentum=0.1, affine=True, track_running_stats=True)
    (2): GELU(approximate='none')
    (3): Dropout(p=0.5, inplace=False)
    (4): Linear(in_features=512, out_features=256, bias=False)
  )
  (head): Sequential(
    (0): BatchNorm1d(256, eps=1e-05, momentum=0.1, affine=True, track_running_stats=True)
    (1): GELU(approximate='none')
    (2): Dropout(p=0.5, inplace=False)
    (3): Linear(in_features=256, out_features=4, bias=True)
  )
)

param count: 
25.6935 M
Loss: CE

it: [10/29-1/250], rank: [1/1], Loss: 0.0747, Loss avg: 0.4625, lr: 0.100000, BT: 0.35, DT: 0.01
it: [20/29-1/250], rank: [1/1], Loss: 0.0411, Loss avg: 0.2686, lr: 0.100000, BT: 0.39, DT: 0.01
Train [1/250]	rank: [1/1], Loss: 0.2057, Acc: 0.9273, Bal Acc: 0.9259, BT: 0.53, DT: 0.03,  epoch time: 15.43
it: [10/29-2/250], rank: [1/1], Loss: 0.0022, Loss avg: 0.0590, lr: 0.099996, BT: 0.34, DT: 0.00
…
